TaxiFareRegrModel.pt (torch_old, 109634 bytes, 20 tensors)

embeds.0.weight f4 [24, 12]
0	0xbfa3c4de	-1.2794454
1	0xbf0ba628	-0.5455041
2	0xbdf1d577	-0.11808293
3	0xbf3e721f	-0.74392885
4	0xbf3a7497	-0.7283415
5	0xbf150f86	-0.5822681
6	0xbf6d9755	-0.9280904
7	0x3e27cedf	0.16387509
8	0x3f1ffcb0	0.62494946
9	0x3e6e6e30	0.2328422
10	0x3f85282e	1.0402887
11	0x3fe5c5b4	1.7950959
12	0xbe62e44e	-0.22157404
13	0x3f461f75	0.7739175
14	0x3d886637	0.06660121
15	0xbf2813b4	-0.65655065
16	0xbf3c404e	-0.7353562
17	0xc004ea74	-2.07681
18	0x3f325013	0.69653434
19	0x3ec3d61b	0.38249287
20	0x3ef59f37	0.47973034
21	0x3f939d94	1.1532464
22	0x3f6137fe	0.8797606
23	0x3f3153c3	0.69268435
24	0x3df9c027	0.12194853
25	0x3f10930d	0.5647438
26	0xbf8b54cd	-1.0885254
27	0x3fc3cae7	1.5296296
28	0xbec0a0fc	-0.3762282
29	0x3e06b7c3	0.13156037
30	0x3eaf49be	0.34235948
31	0x3f4a81e3	0.7910444
32	0x40117fa9	2.2734168
33	0x3ffd13af	1.9771632
34	0xbe79a9b7	-0.24381147
35	0x3fdbdebc	1.7177348
36	0x3f802f66	1.0014465
37	0xbec0f427	-0.37686273
38	0xbf7e485a	-0.9932915
39	0xbfdcdd36	-1.7255008
40	0xbebfeb72	-0.37484318
41	0x3ec597b5	0.38592306
42	0x400d5042	2.2080235
43	0xbf23d997	-0.6400389
44	0x3f890272	1.0703871
45	0x3f588e35	0.8459199
46	0x3d18777b	0.03722332
47	0x3f375283	0.7161028
48	0xbe685d12	-0.22691754
49	0xbf076a87	-0.5289692
50	0xbf579e6f	-0.84226125
51	0xbf428f89	-0.7600027
52	0xbe273ace	-0.16331026
53	0xbeb9addb	-0.36265454
54	0xbec9c5eb	-0.39408812
55	0xbe30761c	-0.17232555
56	0x3f49e61b	0.7886674
57	0x3fa2e1e8	1.2725191
58	0x3e7e06f2	0.24807337
59	0x3efea938	0.4973848
60	0xbf81d59c	-1.0143313
61	0x3ddd7532	0.10813369
62	0x3f884c37	1.0648259
63	0x3f1c05f6	0.60946596
64	0x3f89b2b4	1.0757661
65	0x3dbab3bc	0.09116313
66	0xbf1e41bf	-0.6181907
67	0x3f290947	0.6602978
68	0x3d2ef136	0.042710505
69	0x3f973f19	1.1816131
70	0x3e976636	0.29570168
71	0x3f674848	0.9034467
72	0x3dce029b	0.10059091
73	0xbf70f0f8	-0.9411769
74	0xbf7d7cc5	-0.9901851
75	0xbda4da4c	-0.08049449
76	0x3f2c3bb1	0.6727858
77	0x3e904cd3	0.28183612
78	0xbfa3de8b	-1.280229
79	0x3e465cce	0.1937134
80	0x3f84759e	1.0348394
81	0x3f29683b	0.6617467
82	0x3f3966f9	0.7242275
83	0x3e97b045	0.2962667
84	0x3f9af7e1	1.2106897
85	0xbf48bfd1	-0.7841769
86	0xbf000e22	-0.50021565
87	0x3c917b91	0.017759116
88	0x3f3c7ba4	0.7362616
89	0xbf89d6ac	-1.0768638
90	0x3f49d472	0.7883979
91	0x3de7afca	0.11312826
92	0x3fb962a4	1.4483228
93	0xbf1ccb16	-0.61247385
94	0x3fc6e00e	1.5537126
95	0xbf40c9bd	-0.7530783
96	0x3ee8bcfe	0.4545669
97	0xbc7ab616	-0.015302202
98	0xbf06f829	-0.5272241
99	0x3efaf447	0.49014494
100	0x3e965eb5	0.2936913
101	0x3f066590	0.5249872
102	0x402d1e8a	2.704989
103	0x3e8f29c3	0.2796155
104	0x3eeae442	0.45877272
105	0xbeb1f853	-0.3475977
106	0xbe17e678	-0.1483401
107	0xbefacd04	-0.4898454
108	0xbed01624	-0.40641892
109	0xbfe6eaef	-1.8040446
110	0x3f531f74	0.8246987
111	0x3f596993	0.8492672
112	0xbf292450	-0.66071033
113	0xbea56696	-0.3230483
114	0xbffcdd40	-1.975502
115	0xbba6b6ef	-0.0050877254
116	0x3db8e428	0.09027892
117	0xbeaa809f	-0.33301255
118	0x3d880f4e	0.06643544
119	0x3f42c96a	0.76088583
120	0xbeaab8d6	-0.33344144
121	0xbe475545	-0.19466121
122	0xbe04f246	-0.12983045
123	0xbe8dbd5b	-0.2768353
124	0x3eb126b9	0.34599856
125	0xbe73f4b3	-0.23823814
126	0x3fac0313	1.3438438
127	0x3fbd4a7c	1.4788356
128	0x3e1dea45	0.15421398
129	0x3d80e44d	0.06293545
130	0x3f5c8547	0.86140865
131	0xbf19aae7	-0.600264
132	0xbe30da27	-0.17270719
133	0xbe992d5a	-0.29917413
134	0xbd71abc6	-0.059001707
135	0xbee75ca1	-0.45187858
136	0xbfc554b0	-1.541647
137	0xbfbb7c4b	-1.4647306
138	0xbf404aba	-0.75114024
139	0x3e4fd024	0.20294243
140	0x3f45b207	0.77224773
141	0x3f7dc779	0.99132496
142	0xbc83d397	-0.016092105
143	0xbeb4a6d4	-0.3528353
144	0xbd4b6525	-0.049657006
145	0xbff36d2c	-1.9017692
146	0xbd8a9eb0	-0.067685485
147	0x3f986def	1.1908549
148	0xbfc19c2e	-1.5125787
149	0x3fd3852a	1.6525013
150	0xc00fbfb9	-2.2460768
151	0xbd6567e2	-0.056007273
152	0x3f51e966	0.8199676
153	0xbf3b2c72	-0.73114693
154	0xbe6c30b8	-0.2306546
155	0xbfeb215c	-1.8369555
156	0xbf9b8023	-1.2148479
157	0xbf09aae7	-0.537764
158	0xbf9b2dda	-1.2123368
159	0x3f819245	1.0122763
160	0x3e8d6b0b	0.2762073
161	0xbad3778c	-0.001613365
162	0x3f4a6c1a	0.790712
163	0x3fe44744	1.7834249
164	0xbfc0434f	-1.5020541
165	0x3f8d8651	1.1056615
166	0x3f79e985	0.9762195
167	0xbe2c14de	-0.16804835
168	0x3f35db6e	0.7103795
169	0xbeb6229b	-0.35573277
170	0x3df6c179	0.12048621
171	0x3e47423e	0.19458863
172	0x3d75f55b	0.060048442
173	0x3f10daae	0.5658368
174	0x3ffccf17	1.9750699
175	0xbe5212b2	-0.20514944
176	0xbf3e87df	-0.7442607
177	0x3df79faa	0.120910004
178	0x3edb642d	0.42849866
179	0xbe0333f0	-0.12812781
180	0xbe108ccc	-0.1411621
181	0x3fa4322a	1.2827809
182	0x3f27fb18	0.65617514
183	0xbf6c7241	-0.9236184
184	0x3da113fe	0.07865141
185	0x3f5ae121	0.8549977
186	0x3fa6eb90	1.3040638
187	0xbf6e25e9	-0.93026596
188	0xbe58bb01	-0.21165086
189	0x3bf24768	0.007393766
190	0xbedecfde	-0.43517965
191	0xbe410e75	-0.18853171
192	0x3fd2d2a7	1.6470536
193	0x3e2a164e	0.16610071
194	0xbe06a585	-0.13149078
195	0x3f2e8f75	0.6818765
196	0x3f39032c	0.72270465
197	0xbf3d8c71	-0.7404242
198	0x3f4a0972	0.7892066
199	0x3f6e8c23	0.9318258
200	0x3f0f082b	0.5587184
201	0x3f72546a	0.94660056
202	0x3e0833e4	0.13301045
203	0xbf8126f2	-1.009001
204	0x3f98ff21	1.1952859
205	0xbf81bb04	-1.0135198
206	0x3e0a309d	0.13495107
207	0xbf83d369	-1.0298892
208	0xbf93444b	-1.1505216
209	0x3f627071	0.8845282
210	0xbf3c516b	-0.73561734
211	0xc009a3e9	-2.1506293
212	0x3ed66c8b	0.41879687
213	0x3f32f6cb	0.69907826
214	0xbfdfb040	-1.7475662
215	0xbdd0cff9	-0.10195918
216	0x3e0e2d9b	0.13884585
217	0x3e80b5ba	0.25138646
218	0x3e71a09d	0.23596425
219	0x3f7c3a58	0.98526525
220	0x3e282521	0.16420414
221	0xbe7b98c9	-0.24570002
222	0x3e72a560	0.23695898
223	0xbfb2d840	-1.3972244
224	0xbedd9eec	-0.4328531
225	0x3e64f1d0	0.22357869
226	0xbe444d38	-0.19170082
227	0xbed4b93e	-0.4154758
228	0x3ee0503b	0.4381121
229	0xbfca3273	-1.5796646
230	0x3f58a7de	0.84631145
231	0xbf4cae11	-0.79953104
232	0xbfd0e867	-1.6320924
233	0x3f541959	0.8285118
234	0xbe972011	-0.29516652
235	0xbe22f275	-0.15912803
236	0xbf4cacf3	-0.799514
237	0xbede6d9f	-0.4344301
238	0x3f3670b2	0.7126571
239	0xbd594b0a	-0.05305008
240	0x3d4b3e7f	0.049620148
241	0xbe1fdf3e	-0.15612504
242	0x3edcd2cc	0.43129575
243	0xbfd2f17b	-1.6479944
244	0x3e99b895	0.30023637
245	0xbf7486d8	-0.95518255
246	0x3f7dc4e0	0.9912853
247	0x3eb9a308	0.36257195
248	0xbf3311dc	-0.69949126
249	0xbf5488a9	-0.83021027
250	0xbbc83a52	-0.006110468
251	0xbfdb2994	-1.7122064
252	0x3ec9b06d	0.39392415
253	0x3f18f241	0.5974465
254	0x3f896ed6	1.073695
255	0x3f012fbb	0.50463456

embeds.1.weight f4 [2, 1]
0	0xbe81a775	-0.25323072
1	0xbb637a4a	-0.003471034

embeds.2.weight f4 [7, 4]
0	0xc01d2b14	-2.4557543
1	0xbf361a44	-0.7113383
2	0x3f38d9ea	0.7220751
3	0x3cc00faf	0.023444979
4	0xbe242570	-0.16029906
5	0xbfc22ecb	-1.517053
6	0xbf030221	-0.51175123
7	0x3f7b407d	0.98145276
8	0xbf8f2161	-1.1182061
9	0x3e57c817	0.21072422
10	0xbc8e19df	-0.01734632
11	0xbf6fc807	-0.9366459
12	0x3fc1edbc	1.5150676
13	0xbe8c4ad4	-0.2740084
14	0x3f2bffa9	0.6718698
15	0xbf0d26a6	-0.551371
16	0x400e0098	2.2187862
17	0x3e8c78a4	0.27435791
18	0xbde36f4d	-0.11105213
19	0xbf2ea862	-0.6822568
20	0xbed363bd	-0.41287032
21	0x3e73dd89	0.23814978
22	0xbfbd6684	-1.479691
23	0xbfbf97e4	-1.4968228
24	0x3f9eaaf7	1.2395924
25	0xbe6ce90c	-0.23135775
26	0xbfbfe309	-1.4991161
27	0x3f30b641	0.690281

bn_cont.weight f4 [6]
0	0x3e9167a7	0.28399393
1	0x3f44a722	0.76817524
2	0x3f1e1acd	0.61759645
3	0x3e7ba448	0.24574387
4	0x3d586e4c	0.052839562
5	0x3f043f8e	0.51659477

bn_cont.bias f4 [6]
0	0xbd0e862a	-0.034795918
1	0xbd872bf4	-0.0660018
2	0x3cc97bdf	0.0245952
3	0xbd40e56d	-0.047093797
4	0xbe6e89a3	-0.23294692
5	0xbda5e3a2	-0.08100058

bn_cont.running_mean f4 [6]
0	0x42230176	40.751427
1	0xc293f3ea	-73.976395
2	0x422301ef	40.75189
3	0xc293f2ed	-73.974464
4	0x3fac957d	1.348312
5	0x4054f7d6	3.3276267

bn_cont.running_var f4 [6]
0	0x3a2df01c	0.00066352054
1	0x3a84db90	0.0010136236
2	0x3a704f54	0.0009167094
3	0x3a8a51ef	0.0010552983
4	0x3f13a519	0.57673794
5	0x4132dcb3	11.178882

layers.0.weight f4 [200, 23]
0	0x3dd9e1a8	0.10638744
1	0xbdc4973c	-0.09599158
2	0x3e02cd38	0.12773597
3	0xbc983730	-0.018581003
4	0x3c1a381a	0.00941279
5	0x3e14edaf	0.14543794
6	0xbe4b7285	-0.19867904
7	0xbd5833fd	-0.052783955
8	0x3dc8ec03	0.09810641
9	0x3e08eb42	0.13370994
10	0x3d42287d	0.047401894
11	0xbccd5a46	-0.02506746
12	0x3e2ae836	0.16690144
13	0xbe409640	-0.18807316
14	0x3b02888b	0.0019917812
15	0x3da72d36	0.0816292
16	0x3de54175	0.111941256
17	0x3dcbbdd9	0.0994832
18	0xbe42cc1c	-0.19023174
19	0x3e702178	0.23450267
20	0xbe06c95b	-0.13162749
21	0xbe1041c2	-0.14087585
22	0x3d273121	0.040818337
23	0xbd86401b	-0.06555196
24	0x3cd6ae18	0.026206061
25	0x3ca5e902	0.020252708
26	0x3db8f285	0.09030632
27	0xbd0ca543	-0.034337293
28	0xbce3622e	-0.027756777
29	0x3daa1b3a	0.08305974
30	0x3dbed0f3	0.09317198
31	0x3cb7400b	0.022369405
32	0x3d8a673e	0.06757973
33	0x3dbf0541	0.09327174
34	0x3cfe2dc0	0.031027675
35	0xbe5d18b4	-0.21591455
36	0x3c5ccabe	0.013476072
37	0x3b5be4ba	0.003355308
38	0xbd9093bc	-0.07059428
39	0xbd80a6b4	-0.06281796
40	0xbd5bf284	-0.053698078
41	0x3e162677	0.1466311
42	0xbe1ac540	-0.15114307
43	0x3e5f3993	0.21799307
44	0x3c354bd9	0.011065447
45	0x3e3da275	0.18519004
46	0xbc68a2b1	-0.014198945
47	0xbba2d1ef	-0.0049688737
48	0x3a9d7583	0.0012013171
49	0x3bf7134a	0.007540141
50	0xbc75751f	-0.014981537
51	0xbb904a3a	-0.0044033797
52	0x3bb5526f	0.0055335085
53	0xbc3ed65a	-0.011647785
54	0x3bdcf1ce	0.0067426926
55	0x3b12c52c	0.0022395356
56	0x3cbc0281	0.022950413
57	0xbb82a706	-0.003987196
58	0x3d8c1632	0.06840171
59	0x3b23c1a3	0.0024987243
60	0x3cc9eaf2	0.024648163
61	0x3beb0499	0.007172179
62	0x3ce1b5e8	0.02755256
63	0xbe5ced26	-0.2157484
64	0xbdac2e70	-0.08407295
65	0x3e50fc4e	0.20408747
66	0x3b5c9e26	0.00336636
67	0xbc716aa0	-0.014734894
68	0xbe880dff	-0.26573178
69	0xbd52f017	-0.0514985
70	0xbdb94c87	-0.090477996
71	0xbc831f9a	-0.01600628
72	0xbd50ad7a	-0.05094669
73	0xbd2837cc	-0.041068837
74	0xbb45269d	-0.003008283
75	0xbd387c6b	-0.04504053
76	0xbdd7db93	-0.10539927
77	0xbcf22230	-0.029557317
78	0x3d640184	0.055665508
79	0xbc6a7bb9	-0.014311724
80	0xbdb7ee96	-0.089810535
81	0x3d64af09	0.05583099
82	0xbcbd3166	-0.023094844
83	0x3d2ecc66	0.0426754
84	0x3d55a22c	0.052156612
85	0x3cc11f42	0.023574475
86	0xbc86fbfc	-0.016477577
87	0x3e234704	0.15945059
88	0x3d940642	0.07227756
89	0x3e29f4bf	0.1659727
90	0x3e1e4f72	0.15459993
91	0x3e8320cd	0.25610963
92	0x3e07723e	0.13227174
93	0x3daf739e	0.08566974
94	0xbb682444	-0.0035422007
95	0xbd79e599	-0.061009977
96	0x3dde2445	0.108467616
97	0x3dc2cc11	0.09511579
98	0xbc876a10	-0.016530067
99	0x3d22cb9f	0.03974497
100	0xbca5bfde	-0.020233091
101	0x3c94492c	0.018101297
102	0x3cec43c1	0.028840901
103	0x3a84d34c	0.0010133772
104	0x3d9e05d6	0.07715957
105	0xbdb38c07	-0.087669425
106	0x3e3d5fea	0.1849362
107	0x3d31aa6f	0.04337543
108	0x3e27cb50	0.16386151
109	0xbeaa9024	-0.33313096
110	0x3e550700	0.20803452
111	0xbe9bf998	-0.30463862
112	0xbdfe8843	-0.124283336
113	0x3e1628f5	0.14664061
114	0x3e0b2fc6	0.13592443
115	0xbb58b49c	-0.0033066636
116	0xbaac1ee8	-0.0013131769
117	0x3b32ffdd	0.002731315
118	0x3ab5afb2	0.0013861565
119	0x3bca219c	0.0061685573
120	0x3b7bf9b2	0.003844839
121	0xbb71ace0	-0.0036876723
122	0xb9a55efa	-0.00031542015
123	0xbb64434d	-0.0034830153
124	0xbbae74ff	-0.0053240056
125	0x39e2132d	0.00043120366
126	0xbbd24094	-0.0064163897
127	0x3c80a712	0.015704665
128	0xb9b91be6	-0.00035306736
129	0x3b16742c	0.0022957427
130	0xbb0f8c52	-0.0021903706
131	0x3aa215a3	0.0012366067
132	0x3d3910d3	0.04518206
133	0xbce089d1	-0.027409466
134	0x3c24e673	0.010064709
135	0xbd240578	-0.040044278
136	0xbc2687f1	-0.010164247
137	0x3ecbbd1f	0.39792725
138	0xbe00feed	-0.12597246
139	0x3e35a75a	0.17739621
140	0x3d0d0854	0.03443177
141	0x3e594606	0.21218118
142	0x3bf576fd	0.007490991
143	0xbdc312a5	-0.095250405
144	0xbd8e8259	-0.069584556
145	0xbe5d39d3	-0.2160409
146	0xbde34698	-0.11097449
147	0xbe0f1ee0	-0.13976622
148	0xbdcca084	-0.099915534
149	0xbdc49268	-0.09598237
150	0x3dc83fef	0.09777819
151	0xbdb90289	-0.09033687
152	0x3d6962f9	0.056979153
153	0x3c9fca5b	0.01950567
154	0xbded2b8e	-0.11580573
155	0x3da9bb02	0.08287622
156	0x3e432c1b	0.19059794
157	0xbe388be7	-0.18022119
158	0x3d741427	0.05958953
159	0x3e1be2e8	0.15223277
160	0xbe4f0e8e	-0.20220396
161	0x3c24f8a3	0.010069045
162	0xbba017a8	-0.0048856325
163	0xbaca5fb1	-0.0015439895
164	0x3bc1fcbb	0.0059200204
165	0xbc20f7ec	-0.009824734
166	0x3c2b09f5	0.010439386
167	0x3c7bdd40	0.015372574
168	0x3c7005da	0.014649833
169	0xbbb23194	-0.005438039
170	0xbc961d15	-0.018324414
171	0x3bdcf68e	0.006743259
172	0xbbb6d4d7	-0.0055795717
173	0xbd3ad4b0	-0.04561299
174	0x3c186b9c	0.009303
175	0x3d0553af	0.03255051
176	0xbc08671d	-0.008325365
177	0xbc8b86b1	-0.017032
178	0x3e0bbbd4	0.1364587
179	0xbcdb5d2e	-0.02677783
180	0xbd4fc1ac	-0.05072181
181	0x3ea387fc	0.31939685
182	0x3dcc2ce4	0.099695
183	0x3e32ef2f	0.17474054
184	0x3d5a0b7b	0.053233605
185	0xbd8d970b	-0.06913575
186	0xbd813471	-0.063088305
187	0x3ca4a0aa	0.020096142
188	0xbc4d18f9	-0.012518161
189	0x3c4ddb27	0.012564457
190	0xbb80cc26	-0.0039305864
191	0xbccd1c16	-0.025037806
192	0xbd3fb023	-0.046798836
193	0x3cedf9e3	0.02904982
194	0xbadac775	-0.0016691523
195	0x3c211b5a	0.009833181
196	0xbe35b4b0	-0.17744708
197	0x3c2863cd	0.010277701
198	0xbd917765	-0.07102851
199	0xbb5cd035	-0.0033693437
200	0xbdba27dc	-0.09089634
201	0x3db9b3d7	0.09067505
202	0xbe052619	-0.13002814
203	0x3e570eae	0.21001694
204	0xbe233f5a	-0.15942135
205	0x3ba166f1	0.0049256017
206	0xbe56ae89	-0.20965017
207	0xbdd045ab	-0.10169538
208	0x3c772679	0.015084856
209	0xbdd7726a	-0.105198696
210	0xbd6316b0	-0.05544156
211	0x3dd1329d	0.10214732
212	0xbbcdcd6f	-0.006280593
213	0xbe32b0e4	-0.17450291
214	0xbd0186e4	-0.031622782
215	0x3d9f9d09	0.07793624
216	0xbd27cd20	-0.040967107
217	0x3c595d2d	0.013266844
218	0x3df5759e	0.11985324
219	0x3dbf1909	0.09330947
220	0xbdbe3e18	-0.09289187
221	0x3d1dff65	0.03857364
222	0xbc87e40b	-0.016588232
223	0xbcc4c9eb	-0.024022063
224	0x3d721b9c	0.05910836
225	0xbe48afa3	-0.1959825
226	0xbe30b53b	-0.17256634
227	0xbc42e676	-0.0118957665
228	0xbd59ffdb	-0.05322252
229	0x3e4c73b1	0.19966008
230	0x3e6bba13	0.230202
231	0xbe5eac63	-0.21745448
232	0x3e549560	0.20760107
233	0x3d9eaf57	0.07748287
234	0x3e06d277	0.13166223
235	0x3cb9f78a	0.022701044
236	0xbdf482bf	-0.11939
237	0xbd8cd4c6	-0.06876521
238	0xbd5cd05b	-0.05390964
239	0xbd58bb73	-0.05291314
240	0x3d9fc9cc	0.078021616
241	0xbe2ac5e2	-0.16677049
242	0xbe1ae6a9	-0.15127052
243	0x3e0e4e98	0.13897169
244	0x3c41d348	0.0118301585
245	0x3d087115	0.03331097
246	0x3dfb8306	0.1228085
247	0x3e614ddf	0.22002362
248	0xbddc2df0	-0.107509494
249	0xbb5bde5b	-0.0033549282
250	0xbe2b473e	-0.16726395
251	0xbd03171d	-0.032004464
252	0xbd300e63	-0.04298247
253	0xbdf7da4a	-0.12102182
254	0x3dac4a3f	0.08412599
255	0xbdd1177d	-0.10209558

layers.0.bias f4 [200]
0	0x3e2aaa80	0.16666603
1	0x3e02e367	0.1278206
2	0x3d87bb02	0.06627466
3	0x3e245afb	0.16050331
4	0x3dbd5032	0.09243812
5	0x3e36f98c	0.17868632
6	0x3e6e69fe	0.2328262
7	0xbcff0c83	-0.031133896
8	0xbd2340c5	-0.03985669
9	0x3d8e4887	0.06947427
10	0xbd58866a	-0.052862562
11	0x3e0ae50c	0.13563937
12	0xbd915487	-0.070962004
13	0x3e3b0670	0.18264174
14	0xbdff5a66	-0.12468414
15	0x3e00e555	0.12587483
16	0x3e274348	0.1633426
17	0x3e75bdb5	0.23998149
18	0x3ddabe50	0.106808305
19	0x3ce192b3	0.027535772
20	0x3e3f8823	0.18704276
21	0x3e0acf80	0.13555717
22	0x3db55752	0.08854546
23	0x3ec39595	0.3820006
24	0x3e39abab	0.18131892
25	0x3d36080b	0.044441264
26	0x3dd6eb1c	0.10494062
27	0x3e53afcd	0.20672531
28	0x3d99c24d	0.07507763
29	0x3d34ab08	0.04410842
30	0x3d39ea87	0.04538968
31	0xbe49b11b	-0.19696467
32	0x3e31ddb4	0.1736973
33	0x3c76faa8	0.01507441
34	0xbdf5a276	-0.119938776
35	0xbe232172	-0.15930727
36	0xbe1103bb	-0.1416158
37	0x3e298bbf	0.16557215
38	0xbda3d42a	-0.079994515
39	0x3cb2ae88	0.021811739
40	0x3d9c686c	0.076371044
41	0xbd50e23c	-0.050997004
42	0x3e705291	0.23468997
43	0xbe8c371b	-0.27385792
44	0x3dcc9d3c	0.099909276
45	0xbbdbe4a0	-0.006710604
46	0x3c92473c	0.017856233
47	0x3ea1d436	0.31607217
48	0x3cfb69e7	0.030690147
49	0x3dce229d	0.10065196
50	0xbe16433b	-0.14674084
51	0x3d6d6f4c	0.05796747
52	0x3c94dabe	0.01817071
53	0xbbf3afe0	-0.0074367374
54	0xbe259bc1	-0.16172697
55	0x3dfe86f4	0.12428084
56	0x3e14dbe1	0.14537002
57	0xbc7f05d5	-0.015565355
58	0xbe6e0f50	-0.23248029
59	0x3deffec1	0.11718512
60	0xbc96bbcf	-0.018400101
61	0x3dcc99a6	0.099902436
62	0x3dcb844e	0.099373445
63	0x3ea337c7	0.31878492
64	0xbda6bdd0	-0.081416726
65	0x3d2d331c	0.04228507
66	0x3e10c5cf	0.14137958
67	0x3c51b926	0.0128004905
68	0xbd9c3bd9	-0.076286025
69	0x3e228906	0.15872583
70	0x3e8580be	0.26074785
71	0x3e84c200	0.2592926
72	0x3e300a11	0.1719134
73	0x3e5f6564	0.21816021
74	0xbc18641e	-0.009301214
75	0x3d02441b	0.03180323
76	0x3e4fee5a	0.20305768
77	0xbd9beb61	-0.07613254
78	0x3e21a62c	0.15786046
79	0x3e8be99d	0.2732667
80	0x3e82a6bd	0.25517836
81	0xbcfbaf63	-0.03072328
82	0x3d313f34	0.043273166
83	0x3dd2ba47	0.10289436
84	0x3eb594ae	0.35464996
85	0xbdb26114	-0.087099224
86	0x3e6181f7	0.22022234
87	0xbdf309be	-0.118670925
88	0x3d5c9a3a	0.05385802
89	0x3e487a12	0.19577816
90	0xbd8952cf	-0.067052476
91	0xbd219b9b	-0.039455038
92	0x3e50158e	0.20320722
93	0x3e383553	0.17989092
94	0x3dc15c07	0.09441381
95	0x3bd0f666	0.006377029
96	0x3da1dbf2	0.07903279
97	0x3c8b946b	0.017038545
98	0x3d9185f4	0.07105628
99	0x3d74b4f5	0.059742887
100	0x3d57cf68	0.052688032
101	0x3cbcb948	0.023037568
102	0xbc632e0c	-0.013865959
103	0xbc1324de	-0.008980958
104	0x3e02cb80	0.12772942
105	0x3dbd6a60	0.09248805
106	0xbcf52980	-0.029927015
107	0x3e0eb908	0.13937771
108	0xbdb1a058	-0.08673161
109	0x3e785773	0.24252109
110	0x3e81fc33	0.25387725
111	0x3e132c27	0.14372312
112	0xbc9a05ad	-0.018801535
113	0xbcc196c8	-0.023631468
114	0x3e1bed39	0.15227212
115	0x3e0c0189	0.1367246
116	0x3e6b3301	0.22968675
117	0x3d6a5e7d	0.057219017
118	0x3e0d238a	0.13783088
119	0x3e73c0cb	0.23804013
120	0xbe77f89b	-0.24215929
121	0x3e368721	0.17824985
122	0x3a2e0cde	0.00066394906
123	0x3e2c8caa	0.16850534
124	0x3e2ec92d	0.1706893
125	0xbd3e530e	-0.046465926
126	0x3eb2050e	0.3476948
127	0x3d9e8c4e	0.07741605
128	0xbe934ed8	-0.2877109
129	0xbe4faad1	-0.20280005
130	0x3e827e71	0.25487092
131	0x3db5dcf5	0.08880035
132	0x3e55ecfd	0.20891185
133	0xbd845b73	-0.06462755
134	0xbcebf085	-0.028801212
135	0x3e998546	0.29984492
136	0xbde3a8eb	-0.11116203
137	0xbbd3711a	-0.0064526917
138	0x3e295b76	0.16538796
139	0xbe08b5cb	-0.13350599
140	0x3d06d4cc	0.032917783
141	0x3e23809d	0.15967031
142	0xbc36c628	-0.011155643
143	0xbdacb0d0	-0.08432162
144	0xbdfe7db0	-0.12426317
145	0xbd3c9670	-0.046041906
146	0xbd0a4ab2	-0.03376264
147	0xbdbee956	-0.09321849
148	0xbd973071	-0.07382286
149	0x3daadbd8	0.08342713
150	0x3e513bce	0.2043297
151	0xbdf7c9a6	-0.12099008
152	0x3e083a8b	0.13303582
153	0xbe5c6b67	-0.21525346
154	0xbde1e144	-0.11029294
155	0x3d150cad	0.03638904
156	0x3e65ac13	0.22428922
157	0x3e1424ad	0.14467116
158	0x3d476186	0.04867699
159	0xbcac12f3	-0.02100513
160	0x3e203d38	0.15648353
161	0x3c946839	0.018116103
162	0xb941c14a	-0.0001847792
163	0xbd67d3db	-0.056598525
164	0xbe2c3659	-0.16817607
165	0x3e8b3241	0.27186778
166	0xbec1de16	-0.3786475
167	0xbe972dbf	-0.2952709
168	0x3bf701e2	0.0075380662
169	0x3d0cd08e	0.03437858
170	0x3e1db17c	0.15399736
171	0xbdc4b599	-0.096049495
172	0xbd58fffd	-0.052978504
173	0xbe0ec7ce	-0.13943407
174	0x3e4daf1c	0.2008633
175	0x3de0e783	0.10981657
176	0x3d7a0276	0.061037503
177	0xbd8be985	-0.0683165
178	0x3e4f848d	0.20265408
179	0xbd8d546c	-0.06900868
180	0x3e585afd	0.2112846
181	0xbd85097c	-0.064959496
182	0x3e69d3a1	0.22834636
183	0x3e2c1845	0.16806133
184	0x3e498798	0.19680631
185	0xbd11f835	-0.0356371
186	0x3daac2d3	0.08337941
187	0x3bfa570c	0.0076397713
188	0xbd2d3370	-0.042285383
189	0xbe0a8a95	-0.13529427
190	0xbd5730e0	-0.052536845
191	0xbdc454f7	-0.09586518
192	0xbe46f5f6	-0.19429764
193	0x3d599cf7	0.05312821
194	0xbdb30f00	-0.087430954
195	0x3e853566	0.26017302
196	0x3d97efa4	0.07418755
197	0xbc679be2	-0.014136286
198	0xbd93cd40	-0.07216883
199	0xbd0198d3	-0.031639885

layers.2.weight f4 [200]
0	0x3f587ed6	0.84568536
1	0x3f741380	0.95342255
2	0x3e4f4833	0.20242386
3	0x3f5192ea	0.818648
4	0x3dbed42b	0.093178116
5	0x3e13febb	0.1445264
6	0x3f12b980	0.573143
7	0x3e94ae0c	0.29039037
8	0x3ea595e0	0.32340908
9	0x3f3afec2	0.7304498
10	0x3a4109b1	0.000736381
11	0x3efe6d50	0.49692774
12	0x3f597727	0.8494744
13	0x3e70b872	0.2350786
14	0x3e6f18cf	0.23349307
15	0x3f19e4aa	0.6011454
16	0x3e3a024c	0.18164939
17	0x3f6ee202	0.9331361
18	0x3f2905b0	0.66024303
19	0x3e60191e	0.21884581
20	0x3e173a22	0.1476827
21	0x3f39f256	0.726354
22	0x3ef590a8	0.47961926
23	0x3e26b43d	0.16279693
24	0x3f11528e	0.56766593
25	0x3e887673	0.2665287
26	0x3ebace14	0.3648535
27	0x3f4f2e54	0.80930066
28	0x3f2ec5d9	0.6827064
29	0x3e5fed69	0.21867909
30	0x3d58601a	0.052826025
31	0x3e8fba27	0.2807171
32	0x3d2be060	0.041962028
33	0x3e9cded4	0.30638754
34	0x3ee7cea3	0.4527484
35	0x3e17f7c1	0.14840604
36	0x3f0d973f	0.5530891
37	0x3f450c71	0.7697211
38	0x3f09b217	0.5378737
39	0x3e9f7c8e	0.31149715
40	0x3f2499e6	0.6429733
41	0x3f6a3d16	0.9149946
42	0x3ef57d55	0.47947183
43	0x3f42d900	0.76112366
44	0x3f0c1733	0.547229
45	0x3e05b020	0.13055468
46	0x3e28ecc1	0.16496564
47	0x3f0cfdc4	0.55074716
48	0x3f00cef4	0.50315785
49	0x3f2761ff	0.65383905
50	0x3d1be998	0.03806457
51	0x3e65899b	0.22415774
52	0x3e95c554	0.29252112
53	0x3e6264eb	0.2210881
54	0x3eaedb7b	0.34151825
55	0x3f07914b	0.52956074
56	0x3f300e36	0.68771684
57	0x3ecf5f05	0.40502182
58	0x3e47936d	0.19489832
59	0x3f552416	0.8325819
60	0x3edfe27e	0.43727487
61	0x3f0f271c	0.5591905
62	0x3e9e69df	0.30940148
63	0x3ed2125c	0.41029632
64	0x3efc1607	0.49235556
65	0x3ef65f12	0.48119408
66	0x3f09a785	0.5377124
67	0x3f2629e0	0.64907646
68	0x3d1afee9	0.037840758
69	0x3e934395	0.28762498
70	0x3e6f7591	0.23384692
71	0x3f2cdbe7	0.67523044
72	0x3e374dcd	0.17900772
73	0x3e9aa7e4	0.30206215
74	0x3eb8170a	0.35955077
75	0x3f39e84f	0.726201
76	0x3ec1074e	0.37700886
77	0x3ebdbaf0	0.37056684
78	0x3f3eee95	0.745828
79	0x3f2654d9	0.6497322
80	0x3f218707	0.6309666
81	0x3f6fb2da	0.9363228
82	0x3f208ec4	0.62717843
83	0x3f6a22b5	0.9145921
84	0x3f3dae40	0.7409401
85	0x3f5eea0d	0.87075883
86	0x3ed5069c	0.41606605
87	0x3f4e2d57	0.80537933
88	0x3eb8e0a5	0.3610889
89	0x3e2ac989	0.16678442
90	0x3e8b3943	0.27192125
91	0x3ed34444	0.4126302
92	0x3d598a02	0.05311013
93	0x3f24c6eb	0.64366025
94	0x3ee03ff3	0.4379879
95	0x3f429169	0.7600313
96	0x3ece3b80	0.4027977
97	0x3f71ebc5	0.9450038
98	0x3f6c4f60	0.92308617
99	0x3f24f013	0.64428824
100	0x3eb405df	0.3516073
101	0x3f3a216b	0.7270724
102	0x3e522bf1	0.20524575
103	0x3e5b9c53	0.21446352
104	0x3e9cd419	0.30630568
105	0x3e833b54	0.256312
106	0x3f61a875	0.8814767
107	0x3d9b517b	0.075839005
108	0x3dd18c01	0.10231782
109	0x3f07e1ff	0.5307922
110	0x3f429868	0.76013803
111	0x3f161093	0.5861904
112	0x3f324523	0.69636744
113	0x3ea3df8c	0.3200649
114	0x3f1a51a7	0.6028084
115	0x3e2e7e62	0.17040399
116	0x3f571f90	0.84032536
117	0x3e97173c	0.29509914
118	0x3eac274a	0.33623725
119	0x3ea2f4e0	0.3182745
120	0x3eb9dbbe	0.36300462
121	0x3f5cb17c	0.8620832
122	0x3f5b39d7	0.8563513
123	0x3e33e272	0.17566851
124	0x3f212dbf	0.6296043
125	0x3e3a1bb8	0.18174636
126	0x3e8a1434	0.2696854
127	0x3de8bba1	0.113639124
128	0x3ea6e656	0.32597607
129	0x3ec9fc52	0.39450318
130	0x3f3fdcd8	0.74946356
131	0x3f65c5e4	0.8975508
132	0x3e1968f9	0.1498145
133	0x3f4071df	0.75173753
134	0x3ed8c69a	0.4233902
135	0x3e755c67	0.2396103
136	0x3e8108cb	0.2520202
137	0x3da1a019	0.07891864
138	0x3f4e3542	0.80550015
139	0x3f59dfdf	0.85107225
140	0x3e95e9c9	0.29279926
141	0x3ee73324	0.45156205
142	0x3e6650c2	0.22491744
143	0x3f1fc446	0.62408864
144	0x3d2aaa57	0.041666355
145	0x3f20ca6f	0.6280889
146	0x3e3737e7	0.17892419
147	0x3ebe1bae	0.37130493
148	0x3e8ff4e5	0.28116527
149	0x3f44d808	0.7689214
150	0x3ef9da03	0.48799142
151	0x3e0b661c	0.1361317
152	0x3f2bdae9	0.67130905
153	0x3e30af74	0.1725443
154	0x3f540fdc	0.828367
155	0x3f31c40b	0.6943976
156	0x3f291874	0.6605294
157	0x3f288a6a	0.65836203
158	0x3e08ea3f	0.13370608
159	0x3f016ada	0.5055367
160	0x3e91a5a4	0.28446686
161	0x3f294554	0.6612141
162	0x3f0555c0	0.5208397
163	0x3ee710d6	0.45130032
164	0x3e91bca6	0.2846424
165	0x3f004358	0.5010276
166	0x3e10bb65	0.14133985
167	0x3d263ecf	0.040587243
168	0x3f32e903	0.698868
169	0x3ebb1fbf	0.36547658
170	0x3e3cf405	0.18452461
171	0x3f348dd8	0.70528936
172	0x3f45de97	0.7729277
173	0x3ea3ebb1	0.32015756
174	0x3f3121a9	0.69191986
175	0x3f51e648	0.81992006
176	0x3f10f2a5	0.56620246
177	0x3f3a8f98	0.72875357
178	0x3f58412d	0.8447445
179	0x3f39700b	0.7243659
180	0x3eb1dc5f	0.34738442
181	0x3f36e5fb	0.7144467
182	0x3e3523c8	0.1768943
183	0x3f5b380e	0.8563241
184	0x3e4de345	0.20106228
185	0x3e2ac33e	0.16676041
186	0x3f5669b6	0.8375505
187	0x3ed24835	0.41070715
188	0x3eabf0f2	0.33582264
189	0x3f208662	0.6270505
190	0x3f3916ea	0.7230059
191	0x3ea20753	0.31646213
192	0x3e8ad8e6	0.27118605
193	0x3ebc83a0	0.36819172
194	0x3f6f9474	0.93585896
195	0x3f25db6c	0.64787936
196	0x3ec5f146	0.3866064
197	0x3f00702d	0.50171167
198	0x3e29783c	0.16549772
199	0x3f50e20c	0.8159492

layers.2.bias f4 [200]
0	0xbce25abf	-0.027631162
1	0xbde962ef	-0.11395823
2	0x3de3f9e4	0.11131647
3	0xbdee918f	-0.11648857
4	0xbd725806	-0.059165977
5	0xbceb9c42	-0.028761033
6	0x3d7f4d73	0.06232972
7	0xbd9edbb4	-0.07756749
8	0x3dfdede9	0.123988934
9	0xbdd9694b	-0.10615786
10	0xbd6c7f25	-0.057738442
11	0x3ddf9465	0.10916976
12	0xbd91ffce	-0.07128869
13	0xbd7ce7e9	-0.061744604
14	0x3dcde4a6	0.10053377
15	0x3dfcd83f	0.12345933
16	0xbcc61f24	-0.02418477
17	0x3e006855	0.125398
18	0xbcb373e1	-0.021905841
19	0xbd7863a5	-0.060641903
20	0xbcb8267a	-0.022479285
21	0x3d6fea7e	0.05857324
22	0xbd857559	-0.06516523
23	0x3e17d5f7	0.14827715
24	0x3dffc816	0.12489335
25	0x3ddb8b86	0.10719971
26	0x3dfb6f57	0.12277096
27	0xbdf2870d	-0.11842165
28	0x3de7c493	0.113167904
29	0x3de5f3cb	0.112281404
30	0x3d7b0d7a	0.06129215
31	0x3df707b5	0.12062017
32	0x3dddf08e	0.10836898
33	0x3979f510	0.00023837783
34	0xbddcd3a5	-0.107825555
35	0xbda5e328	-0.08099967
36	0xbddffe49	-0.10937173
37	0x3de7a7c2	0.11311294
38	0xbdc3320e	-0.095310315
39	0xbddb790f	-0.107164495
40	0xbdb5a9f3	-0.08870306
41	0x3daa9d28	0.083307564
42	0x3e37c500	0.17946243
43	0xbd9b40f8	-0.07580751
44	0x3e07e5e1	0.13271286
45	0x3d5f46d0	0.05451089
46	0x3d450730	0.048102558
47	0x3e033734	0.12814027
48	0xbdeb832c	-0.114996284
49	0xbdeb7c23	-0.114982866
50	0x3d7bb4e6	0.061451815
51	0x3df71f7e	0.120665535
52	0xbd28c8a1	-0.04120696
53	0x3dd1a00d	0.102356054
54	0xbddce912	-0.10786642
55	0x3df7a894	0.120927006
56	0xbd82483d	-0.063614346
57	0x3de71777	0.112837724
58	0xbdd531dc	-0.104099005
59	0xbdee73ce	-0.11643182
60	0xbd9a9848	-0.075485766
61	0xbde32797	-0.110915355
62	0x3e0280d8	0.12744462
63	0xbde12c96	-0.10994832
64	0x3dc619dd	0.09672902
65	0x3e041699	0.12899245
66	0xbd3f5a51	-0.04671699
67	0x3e0bfa77	0.13669764
68	0xbdb8f2a0	-0.09030652
69	0xbd857ff7	-0.06518548
70	0x3de50cfa	0.11184116
71	0xbde59518	-0.11210078
72	0x3d687412	0.05675132
73	0x3dfc203c	0.12310836
74	0xbdea07a6	-0.1142724
75	0xbde90b81	-0.11379147
76	0x3dc5c764	0.09657171
77	0xbe00b7a3	-0.12570052
78	0xbde3d3fa	-0.11124416
79	0xbdc96352	-0.09833397
80	0xbdc1c78b	-0.09461888
81	0x3ddf7557	0.10911053
82	0x3d920f9c	0.071318835
83	0x3decdb0a	0.11565216
84	0x3e15f643	0.14644723
85	0xbdda50af	-0.106599204
86	0x3de63702	0.11240961
87	0xbdcec72d	-0.100965835
88	0x3e24077c	0.1601848
89	0xbdb8108a	-0.089875296
90	0x3ddbe0a1	0.10736204
91	0x3df90f85	0.12161163
92	0xbdb15b6b	-0.08660015
93	0xbdd94dbe	-0.10610531
94	0x3dea109c	0.11428949
95	0x3de4bf49	0.11169297
96	0xbdef66a7	-0.11689501
97	0xbdd76697	-0.10517614
98	0x3de2adba	0.11068292
99	0xbdf6f251	-0.12057937
100	0x3e00845f	0.12550496
101	0x3dd73b7f	0.10509395
102	0xbd241435	-0.040058333
103	0xbd83f50f	-0.064432256
104	0xbddf97ed	-0.109176494
105	0x3dd0baf3	0.10191908
106	0xbd289fc5	-0.041167993
107	0x3de53025	0.111908235
108	0x3dd40640	0.103527546
109	0xbdbb105a	-0.09133978
110	0xbe046258	-0.1292814
111	0x3dcdba83	0.1004534
112	0x3de29c5a	0.11064978
113	0xbe00db3a	-0.12583628
114	0xbd2f8ae1	-0.042857055
115	0xbc6210aa	-0.013797918
116	0xbdf67000	-0.12033081
117	0xbd7e4d8c	-0.062085673
118	0xbdb395c5	-0.08768801
119	0x3df4f486	0.11960702
120	0xbdf52c75	-0.1197137
121	0x3da37c12	0.07982649
122	0xbda27bfa	-0.07933803
123	0xbb7a99d4	-0.0038238661
124	0xbde156bd	-0.11002872
125	0xbdab670a	-0.083692625
126	0x3dd4263b	0.103588544
127	0xbdda85be	-0.106700405
128	0x3d271ded	0.040800024
129	0xbdfa20b2	-0.122132674
130	0x3de551ec	0.11197266
131	0xbdbb31bd	-0.09140346
132	0x3c740a82	0.014895083
133	0xbdb9faff	-0.09081077
134	0x3df86752	0.12129082
135	0x3e2fa55f	0.17152928
136	0xbd90f400	-0.07077789
137	0x3db7845f	0.08960795
138	0xbde0d1de	-0.10977529
139	0xbdde30f6	-0.10849182
140	0xbdaed002	-0.08535768
141	0xbcfd6fa6	-0.030937027
142	0x3df1c8fb	0.11805912
143	0x3dfdd124	0.12393406
144	0xbdaa1c66	-0.08306198
145	0x3dbbd536	0.09171526
146	0x3dddd111	0.10830892
147	0x3dd4a47f	0.10382938
148	0xbe041cde	-0.12901637
149	0xbdb2aea6	-0.08724718
150	0x3d1cb355	0.03825696
151	0xbdb3e913	-0.0878469
152	0x3cfad21f	0.030617772
153	0xbd9a4bbd	-0.07533977
154	0x3e0f9eb6	0.14025387
155	0xbde11814	-0.10990921
156	0xbdd243a7	-0.1026681
157	0x3dd3a757	0.10334652
158	0x3dd7dbf4	0.105399996
159	0xbe06c89f	-0.13162468
160	0xbc964368	-0.018342689
161	0x3dda2f79	0.10653586
162	0xbd6a503c	-0.057205424
163	0xbe0293d8	-0.1275171
164	0xbd70ee43	-0.058820974
165	0xbde897b2	-0.113570586
166	0xbd642a57	-0.05570444
167	0x3daa5c5a	0.08318396
168	0x3de34ea7	0.11098986
169	0xbcbde435	-0.023180107
170	0x3dd90ae5	0.10597781
171	0x3dc2c7b4	0.095107466
172	0x3de79483	0.11307623
173	0x3db8240a	0.08991249
174	0x3dcf783a	0.10130353
175	0xbdc935f0	-0.09824741
176	0x3d49f6ce	0.049307637
177	0x3db8af0e	0.09017764
178	0x3dd6cfac	0.10488829
179	0xbda7c791	-0.08192361
180	0x3dd4a80b	0.10383614
181	0xbdee0059	-0.1162116
182	0xbba75b18	-0.005107295
183	0xbde5028c	-0.111821264
184	0xbd3415be	-0.043966047
185	0x3db80969	0.0898617
186	0xbde80dea	-0.11330779
187	0xbd6638bc	-0.05620645
188	0x3db98209	0.09058005
189	0xbdf6af6e	-0.12045179
190	0xbdc31953	-0.095263146
191	0xbdf5327f	-0.11972522
192	0xbda37187	-0.07980638
193	0x3dfdc8d7	0.12391823
194	0xbda5f692	-0.0810367
195	0x3e080b9c	0.13285679
196	0xbdc9a435	-0.09845773
197	0x3e047fa2	0.12939313
198	0x3dde5ce6	0.10857563
199	0xbde51c94	-0.111870915

layers.2.running_mean f4 [200]
0	0x3eb9bfb0	0.36279058
1	0x3e7efd6a	0.24901357
2	0x3e1969fc	0.14981836
3	0x3e28cfd2	0.16485527
4	0x3e0086f3	0.12551479
5	0x3e1915d9	0.1494974
6	0x3e43dcd0	0.19127202
7	0x3ce2c181	0.02768016
8	0x3e1f0953	0.155309
9	0x3e262d1f	0.1622815
10	0x3e6f2773	0.23354892
11	0x3e6d7e29	0.23192658
12	0x3e1ed846	0.1551219
13	0x3e19507a	0.14972106
14	0x3d9fff64	0.07812384
15	0x3ea32f24	0.31871903
16	0x3e1667be	0.14688012
17	0x3eba248b	0.36356005
18	0x3de6c680	0.112683296
19	0x3d206d50	0.03916675
20	0x3e242eff	0.16033553
21	0x3e8988ec	0.26862276
22	0x3dce6aea	0.10078986
23	0x3ef6f1e7	0.48231432
24	0x3e6f5863	0.2337356
25	0x3d6cf938	0.05785486
26	0x3e476f80	0.19476128
27	0x3e8a300e	0.26989788
28	0x3e3f5146	0.18683347
29	0x3e1e5060	0.15460348
30	0x3db510d9	0.08841104
31	0x3d0a91c4	0.03383042
32	0x3e9990d5	0.2999331
33	0x3d071985	0.03298332
34	0x3cac097f	0.021000622
35	0x3cefd688	0.029277101
36	0x3df2e1d4	0.118594795
37	0x3e1a16a4	0.15047699
38	0x3e0d5547	0.13802062
39	0x3de33191	0.110934384
40	0x3e39b633	0.1813591
41	0x3e46e42d	0.1942298
42	0x3e8b0142	0.27149397
43	0x3cc90af4	0.024541356
44	0x3e41ca6d	0.18924876
45	0x3db3457d	0.08753488
46	0x3df2c483	0.11853888
47	0x3edf7f7b	0.43651947
48	0x3da12625	0.078686036
49	0x3e60f1ff	0.21967314
50	0x3e1f84cd	0.15578003
51	0x3e512dab	0.20427577
52	0x3d354a92	0.04426057
53	0x3e940ef6	0.28917664
54	0x3e06a6eb	0.13149612
55	0x3e9b46c6	0.30327433
56	0x3e875488	0.2643168
57	0x3d9d5a06	0.07683186
58	0x3e1e1609	0.15438093
59	0x3e082369	0.13294758
60	0x3e9347db	0.2876576
61	0x3e387397	0.18012844
62	0x3e60f82f	0.21969675
63	0x3e85bd9a	0.26121217
64	0x3e0f5e6e	0.14000866
65	0x3e867034	0.2625748
66	0x3dde50a7	0.10855227
67	0x3e02f708	0.12789547
68	0x3e35ffba	0.17773333
69	0x3e290e0d	0.16509266
70	0x3ea73897	0.32660362
71	0x3e5e6547	0.21718322
72	0x3e80a37c	0.2512473
73	0x3ef2b856	0.47406262
74	0x3df8573b	0.12126013
75	0x3e0bfef0	0.1367147
76	0x3e8472b8	0.25868773
77	0x3d85989a	0.06523247
78	0x3e63ad97	0.22234188
79	0x3e889b69	0.2668107
80	0x3e94f65e	0.29094213
81	0x3e3bd0bf	0.18341349
82	0x3e5f3f23	0.21801428
83	0x3e26213c	0.16223615
84	0x3ec33893	0.381291
85	0x3db0e403	0.0863724
86	0x3eafd1c5	0.3433973
87	0x3da96733	0.08271637
88	0x3d993c5f	0.07482218
89	0x3e588b0d	0.21146794
90	0x3d286595	0.0411125
91	0x3e0149c1	0.12625791
92	0x3e6f2be8	0.23356593
93	0x3e95bed7	0.29247162
94	0x3e2f8320	0.17139864
95	0x3e31e94e	0.17374155
96	0x3e157666	0.14595947
97	0x3de17f8c	0.11010656
98	0x3e4a3073	0.19745044
99	0x3de7e215	0.113224186
100	0x3e887662	0.2665282
101	0x3e9152f2	0.28383595
102	0x3d8644a1	0.06556059
103	0x3d9b3082	0.075776115
104	0x3e80d7e4	0.2516471
105	0x3ea9e4a5	0.33182254
106	0x3e63dede	0.22252986
107	0x3e7a0294	0.24415046
108	0x3e22c995	0.1589721
109	0x3e3efe18	0.18651617
110	0x3e5d9c98	0.21641767
111	0x3e86a7a6	0.2629978
112	0x3e13ecca	0.14445797
113	0x3e1d8a95	0.15384896
114	0x3dec07de	0.11524938
115	0x3dfd20fa	0.123598054
116	0x3e827194	0.25477278
117	0x3d97b8b3	0.074082755
118	0x3e43a038	0.19104087
119	0x3e94907a	0.29016477
120	0x3d69f74e	0.057120614
121	0x3eb283fd	0.34866324
122	0x3e82894e	0.2549538
123	0x3e15647e	0.14589116
124	0x3e4dd1c6	0.20099553
125	0x3d9181a6	0.071048066
126	0x3edee492	0.4353376
127	0x3e5046ce	0.2033951
128	0x3c18e375	0.009331574
129	0x3e0f1a5e	0.13974902
130	0x3e9cea93	0.30647716
131	0x3e0f2a98	0.13981092
132	0x3e83f790	0.25774813
133	0x3e65d28a	0.22443596
134	0x3e212e34	0.15740281
135	0x3ee59254	0.44838202
136	0x3d22d3a4	0.039752617
137	0x3e29e83f	0.16592501
138	0x3e623789	0.22091497
139	0x3e1a30c6	0.15057668
140	0x3e0839d5	0.13303311
141	0x3dee6fa9	0.11642391
142	0x3de8f9d0	0.11375773
143	0x3e9a7dc7	0.30174085
144	0x3e3eb585	0.18623932
145	0x3e28c636	0.16481861
146	0x3e4369a0	0.19083261
147	0x3e8297fe	0.25506586
148	0x3dc7a868	0.09748918
149	0x3e989d63	0.29807577
150	0x3e34b336	0.17646489
151	0x3db36db2	0.08761157
152	0x3e68689f	0.2269616
153	0x3c8b40ae	0.016998615
154	0x3d4b331d	0.049609292
155	0x3e1e06cf	0.15432285
156	0x3e7d3e9e	0.24730918
157	0x3e8127cb	0.25225672
158	0x3e0af80b	0.13571183
159	0x3dc9db31	0.098562606
160	0x3e05f89f	0.13083123
161	0x3df25c19	0.118339725
162	0x3e7c476f	0.24636625
163	0x3d883424	0.0665057
164	0x3d448230	0.04797572
165	0x3e76dff6	0.24108872
166	0x3c7e0d53	0.015506106
167	0x3dc4e4f0	0.09613979
168	0x3d4040af	0.046936687
169	0x3d4c1f42	0.049834497
170	0x3e4ab9f6	0.19797501
171	0x3db0e766	0.08637886
172	0x3de99916	0.11406152
173	0x3e1844b8	0.14869964
174	0x3e938ef7	0.2882001
175	0x3e80f640	0.25187874
176	0x3e40e054	0.18835574
177	0x3e5975a6	0.21236286
178	0x3ebb2517	0.36551735
179	0x3e161248	0.14655411
180	0x3ef332d2	0.4749971
181	0x3dd70c68	0.10500413
182	0x3e2166f6	0.15761933
183	0x3ead5e44	0.3386098
184	0x3e2e10e0	0.16998625
185	0x3db813fd	0.089881875
186	0x3df1f4fb	0.118143044
187	0x3d4316fa	0.047629334
188	0x3e2a6a02	0.16642001
189	0x3d19897c	0.03748463
190	0x3d65768d	0.056021262
191	0x3d5501e8	0.05200377
192	0x3cc8084e	0.024418022
193	0x3e43e92a	0.19131914
194	0x3e12c49a	0.1433281
195	0x3eaba0f8	0.33521247
196	0x3db73965	0.08946494
197	0x3e450174	0.19238836
198	0x3e59c2f5	0.21265776
199	0x3e0bdfde	0.13659617

layers.2.running_var f4 [200]
0	0x3e47713f	0.19476794
1	0x3db47a59	0.088123985
2	0x3c199b3c	0.00937539
3	0x3d87648c	0.06610975
4	0x3d8b30ea	0.06796439
5	0x3d104ae5	0.035227675
6	0x3db754a6	0.08951692
7	0x3c2673ed	0.010159475
8	0x3cabce69	0.020972447
9	0x3d83cbdc	0.064353675
10	0x3deafed3	0.11474385
11	0x3d4db9e0	0.050226092
12	0x3d2a2d03	0.041546833
13	0x3ceb21de	0.028702673
14	0x3ca22a61	0.019795598
15	0x3d8942db	0.06702205
16	0x3ceec8f4	0.029148556
17	0x3da3be16	0.079952404
18	0x3c90868e	0.017642286
19	0x3c463e85	0.012099867
20	0x3d3c7873	0.046013307
21	0x3e0bee07	0.13665019
22	0x3c798497	0.015229366
23	0x3d3b7a6b	0.045771044
24	0x3d37e9c2	0.044900663
25	0x3be5479b	0.0069970614
26	0x3d183b59	0.037165973
27	0x3d96e1c4	0.0736728
28	0x3d637141	0.05552793
29	0x3ca3d908	0.02000095
30	0x3ca4b0a2	0.020103756
31	0x3bad634b	0.0052913777
32	0x3e09a4da	0.13441792
33	0x3c066d7a	0.008204812
34	0x3ba43265	0.0050108903
35	0x3c46ec5a	0.012141312
36	0x3d5e2d8c	0.054242656
37	0x3ca3a087	0.019974006
38	0x3d4dd673	0.050253343
39	0x3cf4554c	0.029825829
40	0x3daab830	0.08335912
41	0x3d96dc63	0.07366254
42	0x3cc893b2	0.02448449
43	0x3c980c62	0.018560592
44	0x3d55e079	0.052216027
45	0x3bc550c1	0.0060215895
46	0x3c04a4df	0.008095949
47	0x3dc59541	0.096476085
48	0x3cf14c73	0.0294554
49	0x3d9e1b25	0.07720021
50	0x3d71813c	0.058961138
51	0x3cd10d82	0.025519136
52	0x3c8a73ba	0.016900886
53	0x3dbba4a0	0.09162259
54	0x3d7d7230	0.061876476
55	0x3dac9b24	0.08428028
56	0x3dddb7a8	0.10826045
57	0x3c402a14	0.011728782
58	0x3dcacee5	0.09902743
59	0x3d219f55	0.03945859
60	0x3e24a531	0.1607864
61	0x3d81dae6	0.0634058
62	0x3d69e9f9	0.0571079
63	0x3d4f2583	0.050572883
64	0x3d667d1e	0.056271665
65	0x3db0d8c6	0.08635096
66	0x3c76e87d	0.015070078
67	0x3cd79f25	0.026321003
68	0x3dbc7f58	0.092039764
69	0x3d666697	0.05625018
70	0x3c98dfd6	0.01866142
71	0x3d8d1e6e	0.068905696
72	0x3c59387c	0.013258096
73	0x3e670fb8	0.2256459
74	0x3d4653dc	0.04841982
75	0x3d282e8b	0.04106001
76	0x3cea1d30	0.02857837
77	0x3c95b34a	0.018273968
78	0x3d38bdff	0.04510307
79	0x3e17165c	0.14754623
80	0x3d9c4cb2	0.07631816
81	0x3d44f317	0.04808339
82	0x3d7a722d	0.061144043
83	0x3cded44c	0.02720084
84	0x3d398b47	0.04529884
85	0x3c96ef23	0.018424576
86	0x3d9b1f1e	0.075742945
87	0x3ccb7540	0.024836183
88	0x3baf39a0	0.0053474456
89	0x3cf3c27c	0.029755823
90	0x3bf4195b	0.0074493117
91	0x3cb835b1	0.02248654
92	0x3d856935	0.06514207
93	0x3e0dd37a	0.13850203
94	0x3ca6472c	0.02029761
95	0x3d6bb8f5	0.057549436
96	0x3d730044	0.059326425
97	0x3d2018b8	0.039086074
98	0x3cf9607d	0.030441517
99	0x3d2434b1	0.040089313
100	0x3d10537e	0.035235874
101	0x3dd90d06	0.10598187
102	0x3cf107c7	0.029422654
103	0x3cf5f5b3	0.030024385
104	0x3de0e94d	0.109819986
105	0x3e3d6342	0.18494895
106	0x3dffe520	0.12494874
107	0x3d943f42	0.07238628
108	0x3d85e394	0.06537548
109	0x3d14241a	0.03616724
110	0x3d52f412	0.051502295
111	0x3d5d492d	0.054024864
112	0x3d2b907b	0.041885834
113	0x3d8726dc	0.06599209
114	0x3cc23488	0.02370669
115	0x3cbb9e2e	0.022902574
116	0x3d6d79a7	0.057977345
117	0x3d111e16	0.035429083
118	0x3d9c86cd	0.07642899
119	0x3d86f7dc	0.06590244
120	0x3c9a85e5	0.018862674
121	0x3dd469b5	0.103717245
122	0x3de91bc0	0.11382246
123	0x3d074f24	0.03303446
124	0x3d9e28b4	0.07722607
125	0x3d3c3d84	0.045957103
126	0x3caac7a2	0.020847145
127	0x3e01cf91	0.12676837
128	0x3b00263c	0.001955404
129	0x3d8d2e45	0.06893591
130	0x3cac047c	0.020998232
131	0x3d53fe6f	0.05175632
132	0x3c829a33	0.015942669
133	0x3e0efb13	0.13962965
134	0x3d34b03c	0.044113383
135	0x3d35b2af	0.04435986
136	0x3c9719dd	0.01844495
137	0x3d4b774a	0.04967431
138	0x3d3d45a1	0.04620898
139	0x3d9f5c6f	0.07781302
140	0x3d2f94d4	0.042866543
141	0x3d0238b0	0.031792343
142	0x3d143218	0.036180586
143	0x3e1a961e	0.15096328
144	0x3dbacecf	0.09121477
145	0x3d446a13	0.047952723
146	0x3d8685d0	0.065684915
147	0x3dfc7f6b	0.123289905
148	0x3d2c470a	0.042059936
149	0x3dfcf2cc	0.12350997
150	0x3d9879ec	0.0744513
151	0x3d31f4e0	0.04344642
152	0x3da5465a	0.08070059
153	0x3bed0ae9	0.0072339666
154	0x3c3c1fce	0.011482192
155	0x3d8c1070	0.06839073
156	0x3d31b82f	0.04338854
157	0x3d7757aa	0.060386337
158	0x3d20ed19	0.039288614
159	0x3d11877c	0.0355296
160	0x3d0b4ee8	0.034010798
161	0x3c8dafdd	0.017295772
162	0x3df000d8	0.11718911
163	0x3d0f7070	0.035019338
164	0x3d019185	0.03163292
165	0x3d7d413d	0.061829794
166	0x3c12f16d	0.008968693
167	0x3d1c0605	0.03809168
168	0x3c1aa5bc	0.009438928
169	0x3c828c34	0.015935995
170	0x3ce46958	0.027882263
171	0x3cb79328	0.022409037
172	0x3cef534a	0.02921452
173	0x3d518805	0.05115511
174	0x3de207c9	0.11036641
175	0x3d8b84cc	0.06812438
176	0x3d9ffc38	0.07811779
177	0x3dda0902	0.10646249
178	0x3dd64953	0.10463204
179	0x3d6f5b9b	0.05843697
180	0x3dd015c3	0.10160401
181	0x3d1aff31	0.037841026
182	0x3d41650e	0.047215514
183	0x3de74d38	0.11294025
184	0x3d402736	0.046912394
185	0x3c8dbd0b	0.017302057
186	0x3d0a81b1	0.03381509
187	0x3c64af5a	0.013957823
188	0x3daa354c	0.08310947
189	0x3c56928f	0.013096466
190	0x3c654399	0.013993167
191	0x3caccc85	0.021093616
192	0x3c802b64	0.01564569
193	0x3d219aa4	0.039454117
194	0x3d9eebdb	0.077598296
195	0x3d0b2006	0.033966087
196	0x3d12fd73	0.03588624
197	0x3d1a5327	0.037676957
198	0x3e1362ab	0.14393108
199	0x3d427081	0.047470573

layers.4.weight f4 [100, 200]
0	0x3c824de5	0.015906284
1	0x3d73c20e	0.059511237
2	0x3d1e87fd	0.038703907
3	0x3cea8b38	0.028630838
4	0xbd7374c2	-0.05943752
5	0xbda9875d	-0.082777716
6	0xbb278300	-0.002556026
7	0xbdcc9741	-0.09989787
8	0x3cfcb46c	0.03084775
9	0x3d4cd04d	0.05000334
10	0xbdfaa51e	-0.12238525
11	0x3d782042	0.06057764
12	0x3bef7dc8	0.0073086955
13	0xbda40c60	-0.08010173
14	0x3d85a811	0.06526197
15	0x3d714c9b	0.058910947
16	0xbdd0a04a	-0.10186823
17	0x3d8df523	0.06931522
18	0xbd6ca854	-0.057777718
19	0xbc73cc0e	-0.014880193
20	0xbe13a07d	-0.1441669
21	0xbd8c4a02	-0.06850053
22	0xbc9470d8	-0.018120214
23	0xbd8f86c9	-0.0700813
24	0x3d1691bd	0.03676008
25	0xbd0b192a	-0.033959545
26	0x3dc35c80	0.09539127
27	0x39e5c97e	0.00043828407
28	0x3d77a54b	0.06046037
29	0x3d17db68	0.037074476
30	0x3dcc4b0a	0.0997525
31	0xbd1f765d	-0.03893124
32	0xbce1ab9b	-0.027547648
33	0xbe45d19b	-0.1931824
34	0xbce81675	-0.02833102
35	0xbbb35bdd	-0.0054735974
36	0xbd0d6633	-0.034521293
37	0x3d05faa4	0.032709733
38	0x3dabfcbd	0.083978154
39	0xbd8733eb	-0.066016994
40	0x3d291722	0.041281827
41	0x3da1f774	0.07908526
42	0x3d21ad82	0.03947211
43	0xbc2237c2	-0.009900989
44	0xbd89d613	-0.067302845
45	0x3dc58f26	0.09646444
46	0x3e21b063	0.15789942
47	0xbd45bbb3	-0.048274707
48	0x3ca9cabe	0.020726558
49	0xbd34ceba	-0.044142462
50	0x3e0148eb	0.12625472
51	0xbcd76517	-0.02629332
52	0xbd464c4a	-0.0484126
53	0xbd4d7f70	-0.050170362
54	0xbd43ee93	-0.047834944
55	0xbd3396f5	-0.043845136
56	0xbcf22a1c	-0.029561095
57	0xbb8f112d	-0.004366061
58	0xbdc757eb	-0.09733566
59	0xbc894935	-0.01675854
60	0xbd47eda4	-0.048810616
61	0x3cf6627c	0.030076258
62	0xbcac9125	-0.021065304
63	0x3d0d7fa4	0.034545556
64	0x3cf9cb21	0.030492367
65	0x3c9d74d0	0.01922074
66	0xbd0ad053	-0.03389008
67	0xbb6b7589	-0.003592821
68	0xbdb90108	-0.090334
69	0xbd663a45	-0.056207914
70	0x3cd72d3b	0.026266685
71	0xbbce8e6c	-0.006303599
72	0x3bc310e3	0.005952941
73	0xbcd64a61	-0.026158514
74	0xbbd3db07	-0.006465319
75	0x3b4fabf6	0.003168819
76	0x3df5c228	0.11999923
77	0x3c8ad057	0.016945047
78	0x3d2b86af	0.04187649
79	0xbd2e8d5f	-0.04261529
80	0xbdccfbc6	-0.100089595
81	0xbc9f7b09	-0.019467847
82	0x3d570fc0	0.052505255
83	0x3cc398c0	0.023876548
84	0xbd0b7773	-0.034049463
85	0xbb016ebd	-0.0019749843
86	0xbd744d8c	-0.059644267
87	0xbd1e308a	-0.03862051
88	0x3d7548b7	0.0598838
89	0xbd2e5c88	-0.042568713
90	0x3db1773f	0.086653225
91	0x3d3b513d	0.04573177
92	0xbd57b8ef	-0.0526666
93	0x3d511f29	0.051055107
94	0xbbae92f9	-0.005327579
95	0xbc767360	-0.015042156
96	0xbcbed177	-0.02329324
97	0x3d09b5a3	0.033620488
98	0xbbf7ebda	-0.0075659575
99	0x3bc82ef3	0.0061091124
100	0xbca6abb2	-0.020345543
101	0xbb0c108b	-0.0021372165
102	0xbda53eb3	-0.080685996
103	0xbccd7dee	-0.025084462
104	0xbddfd46b	-0.109291874
105	0xbda7855b	-0.081797324
106	0x3d97e0a6	0.07415895
107	0x3de55a2b	0.11198839
108	0x3c30c430	0.010788962
109	0xbbfd04de	-0.0077215275
110	0xbcf8ec76	-0.03038619
111	0x3dcc490d	0.09974871
112	0xbcde8778	-0.027164206
113	0x3c02b542	0.007977786
114	0xbc8ce4d4	-0.017198958
115	0xbdcc232a	-0.099676445
116	0x3d0c47bc	0.0342481
117	0xbc5a26f0	-0.0133149475
118	0x3d05b3fd	0.032642353
119	0x3cc5cc16	0.024145167
120	0xbd8c12ca	-0.06839521
121	0xbaad7831	-0.0013234672
122	0xbd30a9b8	-0.043130606
123	0xbd8efbfe	-0.069816574
124	0xbd061d09	-0.032742534
125	0xbdfa8a4a	-0.12233408
126	0xbcd2802f	-0.025695888
127	0xbd880da0	-0.06643224
128	0xbd3f5d7c	-0.046720013
129	0xbd1dd18c	-0.038529918
130	0x3bcd8fba	0.006273237
131	0xbd274494	-0.040836886
132	0x3d234915	0.03986462
133	0xbc21bcf0	-0.009871706
134	0xbcd07d74	-0.025450446
135	0x3dd078e1	0.10179306
136	0xbd4bab6c	-0.049724028
137	0x3bc3825e	0.0059664687
138	0xbb7d65bb	-0.0038665372
139	0xbbe2fd6c	-0.006927183
140	0xbd59d07a	-0.053177334
141	0xbe06d7d8	-0.13168275
142	0xbce1c3c6	-0.027559172
143	0x3d110c93	0.035412382
144	0xbd3bc4d2	-0.045842
145	0x3cfe801b	0.031066945
146	0xbd198e9e	-0.037489526
147	0x3c155885	0.009115343
148	0x3d016422	0.031589635
149	0x3cfd970b	0.030955812
150	0xbbf7abbb	-0.0075583137
151	0xbdc87d71	-0.09789551
152	0xbd21918b	-0.03944544
153	0xbd9dd13b	-0.07705923
154	0xbcdb6fda	-0.026786733
155	0x3d3a892d	0.045540977
156	0xbce181b3	-0.027527666
157	0x3a8445fc	0.0010091658
158	0x3c82c379	0.01596235
159	0xbc940ffd	-0.01807403
160	0xbd2d8b74	-0.04236932
161	0x3d5e3b86	0.054255985
162	0xbd1253b2	-0.03572435
163	0x3d1f7cd8	0.03893742
164	0xbb83e91e	-0.0040255925
165	0x3cd5acfc	0.026083462
166	0xbd8a16b4	-0.067426115
167	0x3d20d1b8	0.039262503
168	0xb94986ec	-0.00019219116
169	0xbde3c711	-0.11121953
170	0xbd6536b8	-0.055960387
171	0xbcb88eec	-0.022529088
172	0x3d117ed9	0.035521362
173	0x3deb4a21	0.11488748
174	0xbd4f9c61	-0.050686244
175	0x3cfc4105	0.030792722
176	0x3cfbbde9	0.030730205
177	0xbce5d66b	-0.028056344
178	0xbdad0d8e	-0.08449851
179	0xbd09a36a	-0.03360311
180	0xbda7e51e	-0.081979975
181	0xbc84254b	-0.016131064
182	0xbe0b7c01	-0.13621522
183	0xbc3a9e94	-0.011390347
184	0xbdc04e09	-0.09389884
185	0xbc8f89f9	-0.017521845
186	0xbdaacc00	-0.08339691
187	0xbd4ad930	-0.049523532
188	0xbd2dad66	-0.042401694
189	0x3ca21915	0.01978735
190	0xbcd15636	-0.025553804
191	0x3d5ae667	0.053442385
192	0x3c794620	0.015214473
193	0x3d7b8f01	0.061415676
194	0xbd1c6de4	-0.038190737
195	0x3b73057b	0.0037082124
196	0xbd39cc67	-0.04536095
197	0x3d13429f	0.035952207
198	0x3d3c6a47	0.04599979
199	0xbd262aea	-0.04056827
200	0xbc23dc13	-0.0100012
201	0x3d27d50c	0.04097466
202	0x3d0420b3	0.032257747
203	0x3d0ce40f	0.03439718
204	0xbdbbd928	-0.09172279
205	0xbd99f214	-0.07516876
206	0x3c774e1d	0.015094307
207	0x3da805d9	0.0820424
208	0x3d46d101	0.048539165
209	0x3cb24868	0.021763042
210	0xbdf1ef4b	-0.1181322
211	0xbd78cea2	-0.060743935
212	0xbd567484	-0.05235721
213	0x3c75f7a4	0.015012655
214	0x3c53fb13	0.012938279
215	0xbd22ea03	-0.039773952
216	0xbcd4b8f7	-0.025967104
217	0xbe273505	-0.16328819
218	0x3d5c5535	0.053792197
219	0xbcee4a89	-0.029088276
220	0xbc1ecc05	-0.009692197
221	0xbcfc7664	-0.030818172
222	0x3d84e779	0.064894624
223	0xbda4c57a	-0.08045478
224	0xbd54be30	-0.05193919
225	0xbde89f85	-0.11358551
226	0xbdad789c	-0.0847027
227	0x3db86cfa	0.09005161
228	0xbc65c461	-0.014023871
229	0x3cf09bad	0.029371107
230	0x3ddbfd38	0.10741657
231	0xbc945df7	-0.018111212
232	0xbd48938e	-0.048968844
233	0xbd7755f9	-0.060384724
234	0x3d119f68	0.035552412
235	0xbccf440c	-0.025301002
236	0x3d7871bf	0.06065535
237	0xbd564fd1	-0.052322213
238	0xbc39c769	-0.011339047
239	0x3c506a7c	0.0127207
240	0x3ceddf14	0.029037036
241	0xbd47351e	-0.04863464
242	0xbda7f6ea	-0.08201392
243	0x3dcfc8f0	0.10145748
244	0xbd40fa00	-0.04711342
245	0x3dfd1d68	0.123591244
246	0x3d51b4ab	0.05119769
247	0xbdef04b1	-0.11670817
248	0x3d6d62df	0.05795562
249	0x3d9d7ecb	0.076901995
250	0x3c5e435e	0.013565866
251	0xbd25cc5f	-0.040478107
252	0xbd45ff7c	-0.048339352
253	0xbdae7740	-0.08518839
254	0x3d2a8772	0.041633077
255	0x3c8e3ec8	0.01736392

layers.4.bias f4 [100]
0	0x3de91ffe	0.11383055
1	0x3dfb3220	0.1226542
2	0x3ae5d19c	0.0017533782
3	0xbdf1511a	-0.11783047
4	0x3e4bd4a8	0.1990534
5	0xbccf7438	-0.025323972
6	0x3bc26de3	0.0059335097
7	0x3e293b21	0.16526462
8	0xbd81adf0	-0.06332004
9	0x3dbe3e04	0.09289172
10	0x3e0d2ed4	0.13787395
11	0x3be0c66a	0.0068595903
12	0x3e0c1eeb	0.1368367
13	0xbd6539a5	-0.055963177
14	0x3e3d70c3	0.18500046
15	0x3e245180	0.16046715
16	0x3d8a7133	0.06759872
17	0x3d896db6	0.06710379
18	0x3e32c84f	0.17459224
19	0xbe5b22f0	-0.21400046
20	0x3e189bba	0.14903155
21	0xbdc68220	-0.09692788
22	0x3e03b6f7	0.12862764
23	0xbd52c998	-0.051461786
24	0x3d6e2443	0.05814005
25	0x3d5efbe3	0.054439437
26	0x3dbb6ae5	0.09151248
27	0x3d564ed4	0.05232127
28	0xbe4a5b53	-0.197614
29	0x3dc236a0	0.09483075
30	0xbce9b91d	-0.028530652
31	0x3d8348e0	0.06410384
32	0x3e4c2304	0.19935232
33	0x3e065cab	0.13121288
34	0xbd5d3dbe	-0.05401396
35	0xbda0d388	-0.078528464
36	0x3c3d9efb	0.011573548
37	0xbc8872ee	-0.016656365
38	0xbd6f733c	-0.058459505
39	0x3e11cc85	0.14238174
40	0xbd4a4514	-0.049382284
41	0x3e595868	0.2122513
42	0x3c8563d4	0.016282953
43	0x3da8be02	0.08239366
44	0x3d9e3638	0.07725185
45	0x3e17a1bf	0.14807795
46	0xbda55836	-0.080734655
47	0x3e2b39fc	0.16721338
48	0xbd69c040	-0.05706811
49	0xbd78a666	-0.060705565
50	0xbd99d22e	-0.07510792
51	0x3dbd3e20	0.09240365
52	0xbd4fc27d	-0.050722588
53	0x3e2915f9	0.16512288
54	0x3dc81dc1	0.097713
55	0x3e100166	0.14063033
56	0x3d9ea79f	0.07746815
57	0x3d101d50	0.035184205
58	0x3de13df8	0.10998148
59	0x3df2c6e2	0.1185434
60	0x3dd122b3	0.102116965
61	0x3e01e832	0.12686232
62	0xbe10e867	-0.14151154
63	0x3e45ec5a	0.19328442
64	0x3dec8f57	0.115507774
65	0xbc789354	-0.0151718445
66	0x3e04b30b	0.12958924
67	0xbd0c52cd	-0.034258652
68	0x3e2b0085	0.16699417
69	0xbd8bac09	-0.068199225
70	0xbe2fdb7d	-0.17173572
71	0x3d92da3b	0.071705304
72	0xbd6a91ee	-0.057268076
73	0x3d965e91	0.07342256
74	0xbd7c8800	-0.061653137
75	0x3e42bd8f	0.19017623
76	0x3c3b7366	0.011441087
77	0x3dc0a6db	0.09406825
78	0x3dcce9f0	0.100055575
79	0x3e662eb8	0.2247876
80	0x3e4b8e8e	0.19878599
81	0xbdfd6a0a	-0.12373741
82	0xbdaa29b3	-0.08308735
83	0xbd2519cb	-0.0403078
84	0xbe24f03a	-0.16107264
85	0x3e0c4b32	0.1370056
86	0x3dea8430	0.11450994
87	0xbdc8af46	-0.09799056
88	0x3e2507f2	0.16116312
89	0x3e3e9de9	0.18614925
90	0x3e01a037	0.12658773
91	0x3e1c61e3	0.15271716
92	0xbd396a53	-0.045267414
93	0x3e058135	0.1303757
94	0x3e17456a	0.14772573
95	0x3c5f0b86	0.013613587
96	0x3e0b701d	0.13616987
97	0x3d8e5aef	0.06950938
98	0x3dd010b8	0.10159439
99	0x3e261b9e	0.16221473
